model.tflite (tflite, 149296 bytes, 10 tensors)

sequential/conv2d/BiasAdd/ReadVariableOp f4 [32]
000000 8f 75 d3 3c dd bc 0b bd 4e bf f7 bb a0 a5 e4 3d
       0.025812892 -0.03411566 -0.007560647 0.11164403
000010 4f db e6 3d 9d ba 30 bb b4 cb 0a 3c 7f f3 fd ba
       0.112722985 -0.00269667 0.008471418 -0.0019374936
000020 73 78 df 3d 71 42 a6 bc c8 1b 31 bc 2b 20 d9 3a
       0.10911646 -0.020295354 -0.010809846 0.0016565373
000030 3c 33 0d 3e 09 2d 07 bc 8f 7e cc bd 38 13 2e bd
       0.13789076 -0.008250483 -0.09985077 -0.042498797
000040 17 5b 8a 3c 45 fd 2b bb 38 b8 32 bb 39 15 82 3d
       0.016889138 -0.002624349 -0.0027270447 0.06351704
000050 70 df 36 bc ec f4 b8 3d 09 cd e8 bc 31 9b 1e bc
       -0.01116167 0.0903109 -0.02841808 -0.009680555
000060 a4 97 de bc 53 e3 60 bb 77 5d ac bd 63 d6 8e 3d
       -0.027171917 -0.0034315183 -0.084162645 0.06974485
000070 c4 cf b5 ba 39 d8 3b 3c cf 7d 87 bc e6 2d 15 bd
       -0.0013871123 0.011465126 -0.016539482 -0.036420725

sequential/conv2d_1/BiasAdd/ReadVariableOp f4 [32]
000000 32 54 28 bc 4c 69 9c 3d ed 2f 20 bb 66 ad 49 3d
       -0.01027398 0.07637271 -0.0024442628 0.04923763
000010 ce 91 1d ba d2 ce 1f 3d 0c 25 f5 bc f8 6a bc bc
       -0.00060108013 0.0390156 -0.029924892 -0.023000225
000020 04 1a df bc b5 8c 40 3d 26 7f d3 bc ef 37 51 3d
       -0.027234085 0.04700919 -0.025817465 0.051078733
000030 9f 52 e2 bc 5f 65 71 3b bc b9 eb bc a2 ba 1d 3e
       -0.027627287 0.0036834104 -0.028775088 0.15403226
000040 6c 63 6a 3c f4 ae 04 3c 8a 6d 31 bd 48 d8 98 3d
       0.014305931 0.008098353 -0.043317355 0.074631274
000050 7f 63 85 3d 31 76 c8 3d fe f9 82 bc 38 d9 d2 bc
       0.06513118 0.09788168 -0.015988346 -0.025738344
000060 9e be 5f 3c 31 37 c1 3d 1a a6 d1 bc 1e 57 0e bc
       0.0136562865 0.09434355 -0.025591899 -0.008687763
000070 f3 65 ce bc 83 4a 00 3c d6 4e 9f 3d dc c0 58 3d
       -0.025195098 0.007830265 0.07778709 0.0529183

sequential/conv2d_2/BiasAdd/ReadVariableOp f4 [32]
000000 f8 0c 9e 3d 0b f2 19 bd 02 6f b6 bc 75 86 5a bd
       0.07717317 -0.037584346 -0.02226973 -0.053350884
000010 5f c8 63 bc de 0a 88 3b f8 e7 d5 bb 5c 8e a6 3c
       -0.013902753 0.004151686 -0.006527897 0.020331554
000020 48 21 c9 3d 8e 0b 14 bd 04 5f 7e bc 50 9b 6f bc
       0.09820801 -0.036143832 -0.015525583 -0.014624432
000030 27 e3 a6 bd 5b 69 bc 3b 3b ff ee bc 92 e3 bf 3c
       -0.081487946 0.005749864 -0.029174438 0.023423944
000040 ce 1b 2e bd 72 08 04 bd a8 c9 f1 bc 0e e4 c6 ba
       -0.042506985 -0.032234617 -0.029515103 -0.0015174167
000050 77 d3 77 3d 7d ed 90 3d 8c 88 02 3d 54 f9 93 bd
       0.060504403 0.07076547 0.031868502 -0.0722529
000060 05 12 b1 bc 29 95 55 bc 17 78 fe bc 97 94 d2 bc
       -0.021615038 -0.013036051 -0.031063123 -0.025705619
000070 af 6b a2 3c 7d 93 a9 bd 44 bd 20 bd df cb 0d bd
       0.019826738 -0.08280084 -0.039242998 -0.034618255

sequential/conv2d/Conv2D f4 [32, 3, 3, 3]
000000 98 10 1d 3e ef 22 e0 3d 4c 4c 46 3e 85 57 4a bc
       0.15338361 0.10944163 0.19365042 -0.012349968
000010 78 4c 21 3d 8f 3e 23 3e 7f 19 58 be 63 bb 79 be
       0.039379567 0.15941833 -0.21103476 -0.24387889
000020 d2 71 98 bd 53 a7 11 3e 6a f2 84 bd 65 33 7c 3d
       -0.074435845 0.14223985 -0.06491549 0.06157245
000030 ce 00 ed bd 5d c7 57 be 1f 37 fb 3d 6e 49 b0 bd
       -0.11572419 -0.21072145 0.12266373 -0.086077556
000040 5e d2 8b be ba 88 ee 3d 7c 3c e0 bd 9a db 9b bd
       -0.27308935 0.11647172 -0.109490365 -0.07610245
000050 ab 9b 74 3d 2f db 7f 3d 8d ef 3d 3d 02 de 88 3d
       0.05971877 0.06246489 0.04637103 0.0668297
000060 fd 14 8a 3d 9d 84 3a be 21 17 6b bd a2 cd 80 bd
       0.067422844 -0.1821465 -0.057395104 -0.06289221
000070 7a 69 dd bd cb c7 49 3d bc ea bd 3d 32 fa a3 bd
       -0.10811134 0.049262803 0.09273288 -0.08006705
000080 d9 f3 1c 3e a6 15 bb bd ec b2 0d 3d 7c 86 76 3d
       0.15327395 -0.091349885 0.03459446 0.060186848
000090 fa bc 01 bd 99 4c ec 3d d2 f0 a9 bd 7f a7 a5 3d
       -0.031674363 0.11538047 -0.08297886 0.08088588
0000a0 e3 25 bf 3d 3f 74 e5 bd fd aa ef 3b fc 07 02 3e
       0.09333398 -0.11203813 0.0073140846 0.12698358
0000b0 0d 80 d7 3d c3 6b 0d 3d fa 2f ed bd 87 33 38 be
       0.105224706 0.034526598 -0.115814164 -0.17988406
0000c0 11 31 35 3d 26 2a ea 3d 95 7a 54 be 35 e6 38 be
       0.044236246 0.114338204 -0.20749886 -0.18056567
0000d0 78 cd 07 be 9c 40 a3 bb 27 c3 04 3e 81 7a d3 bd
       -0.13261974 -0.0049820673 0.1296507 -0.103261
0000e0 6a bc 2c 3e b2 5e 24 be 98 82 c9 3c c7 f5 9a bd
       0.1686875 -0.16051748 0.024598405 -0.075664096
0000f0 5a e8 5b be 00 43 cd bd 8e 81 52 be 74 78 bd 3d
       -0.21475354 -0.10022545 -0.20557234 0.0925149
000100 51 08 33 bc aa c5 35 bd a4 a5 57 3d d4 a6 da 3d
       -0.010927276 -0.04437796 0.0526482 0.10676351
000110 92 25 0b 3e 3c f7 90 3d 83 85 0d 3e c6 96 31 bd
       0.1358855 0.07078406 0.13820462 -0.04335668
000120 5d 16 10 be bc 6b b4 bd 9a ca ac bd b3 2d 2f be
       -0.14071031 -0.08809611 -0.08437081 -0.17107277
000130 04 8d cf 3d d4 c9 b2 bd 2f 89 a8 3b 6c a8 60 3d
       0.101343185 -0.08729902 0.0051433067 0.05484812
000140 11 a3 0d 3e 98 e9 73 bc 23 60 cf bd 7b 85 89 be
       0.13831736 -0.014887236 -0.101257585 -0.2685965
000150 5f bd f7 bd d5 d4 c9 bd 16 80 fc bd d3 3e 63 be
       -0.120966665 -0.098550476 -0.12329118 -0.22191934
000160 3d 2b 0c be dc 1e e5 bd 21 d7 71 3c ee af d7 bd
       -0.13688369 -0.111875266 0.014760763 -0.10531603
000170 66 88 ab 3d 3a d9 2f be 22 56 cd bd 10 07 69 bd
       0.08375625 -0.17172709 -0.10026194 -0.0568915
000180 df 55 b0 bd 5b 5f 2d bd f1 3d e3 bd e7 f6 ce 3d
       -0.086101286 -0.042327266 -0.11095799 0.10105687
000190 03 24 26 3c e7 57 5d 3c 5e ef 21 bd 0e fe d4 3d
       0.010140422 0.013509727 -0.03953492 0.104000196
0001a0 ab 7a b7 3d 2b 8e 6b bd 10 ab e2 3d df b5 c4 3d
       0.08958944 -0.05750863 0.11067784 0.09605002
0001b0 33 04 f6 3d ca 23 28 bd b7 cb 8f 3b a1 8f 2f 3e
       0.1201252 -0.041049756 0.0043882984 0.17144634
0001c0 0b 97 e7 3c 46 e3 d4 3d 6b aa 14 bd f7 46 88 bd
       0.028270265 0.103949115 -0.036295336 -0.066541605
0001d0 c9 8f de 3b 66 8a 0f 3e 10 be 41 be 56 b7 10 3e
       0.006792043 0.14017639 -0.1892016 0.14132437
0001e0 a8 5b 34 3d f7 ab 01 be d7 a8 e7 3b 69 35 22 3e
       0.044032723 -0.12663256 0.007069688 0.15840687
0001f0 7e 54 5c be 6b b5 61 bd 6f ee 66 3d 32 fd 80 bb
       -0.21516606 -0.055104654 0.05637973 -0.0039364332
000200 66 4c 9e bd c3 01 61 bd f0 6e f9 bd 46 eb f1 bd
       -0.077294156 -0.05493332 -0.12179363 -0.11812453
000210 31 76 8c 3d 23 44 83 be 18 12 01 be 69 b4 ee 3c
       0.06858481 -0.25637922 -0.12604558 0.02913876
000220 14 41 62 bd 7c 0b 61 3e 76 bd 28 be d3 1f 5c 3d
       -0.055237845 0.21977037 -0.16478524 0.053741287
000230 f0 65 a5 3d 60 15 ee bd 5e 10 64 bd 08 5b 50 3e
       0.08076084 -0.11625171 -0.05567967 0.20347226
000240 72 95 a5 3c cc 05 2b be 52 15 7d 3e 74 93 86 3c
       0.020212863 -0.1670143 0.24715164 0.016427733
000250 a5 4e c3 bd c1 d4 60 3e 3c 2a fb 3c 38 12 3d bd
       -0.09536485 0.21956159 0.030659787 -0.046159953
000260 58 aa 08 3b bd 74 2d be fc 00 65 bd c4 a5 75 3e
       0.0020853486 -0.16939063 -0.055909142 0.23989016
000270 0e 3f 7f bb 17 ec 8d 3d ac 74 77 3d c4 c0 39 be
       -0.0038947496 0.06929796 0.060414 -0.1813994
000280 34 94 d9 3d 57 d7 13 bb 32 31 8e bd 84 60 16 be
       0.10623971 -0.0022558772 -0.06942977 -0.14685255
000290 f0 79 22 bd c7 9a 85 bd 02 80 c7 3d 22 6f eb bd
       -0.03966707 -0.06523662 0.097412124 -0.11495806
0002a0 81 66 86 bd 00 39 23 3e 18 d5 04 3e c0 15 46 be
       -0.0656252 0.15939713 0.12971914 -0.19344234
0002b0 d4 ca dc bd 50 05 30 be 88 fe e3 bd b3 1d 60 3d
       -0.10780874 -0.17189527 -0.11132532 0.054715823
0002c0 b3 5e c3 bc 41 85 1d 3e 00 1b de 3d ca e5 25 3e
       -0.023848867 0.15382864 0.108449936 0.16200939
0002d0 32 d9 fc 3c 1a 92 11 3d 98 88 ce 3d 70 5a b1 bd
       0.030865286 0.035539724 0.10084647 -0.08659828
0002e0 5e 35 c8 bd e7 15 e5 bd 16 7c 95 3d a0 6c 9a 3d
       -0.09775804 -0.11185818 0.07299058 0.0754025
0002f0 21 72 fa 3c 19 1c 94 bd 9e 5d 3c bd 33 ca c4 3c
       0.030571999 -0.07231922 -0.045987718 0.024022197
000300 24 7b 9a 3c 92 ef e8 3d 9b b2 67 3a 12 b4 d1 bd
       0.018857546 0.113738194 0.0008838565 -0.10239424
000310 3f 95 3a bd e4 fa b5 bd 8c b6 c0 3b ea a0 55 be
       -0.04555249 -0.08885744 0.0058811363 -0.20862165
000320 b2 d5 27 be fd 4c 50 3d ab f0 5e 3d b0 d9 87 3d
       -0.16390112 0.05085467 0.054428738 0.066333175
000330 e4 66 d2 3c 31 46 03 be 2b f5 1e bd 1c 94 1c 3e
       0.025683828 -0.12819745 -0.03880803 0.15290874
000340 cd d2 21 3d 66 e0 8a 3e c5 60 b1 bd aa 97 0f be
       0.039507676 0.27124327 -0.086610354 -0.14022699
000350 c2 f1 11 be 3a b3 c7 bd e4 09 ed bc 4d 61 14 3e
       -0.1425238 -0.09750982 -0.02893538 0.14490242
000360 98 c0 90 bd 44 e6 fd 3d a2 27 08 3e 68 5c 06 3e
       -0.07067984 0.12397435 0.13296369 0.13121188
000370 ab d6 9d bd 22 04 33 3e d9 ff 10 3d cb 0e 2d 3e
       -0.0770696 0.17482045 0.035400245 0.16900174
000380 da d9 2b 3e a1 d9 09 bc 5b 14 53 be 74 19 a3 3c
       0.16782323 -0.008413703 -0.20613234 0.019909598
000390 66 02 8d bd 77 a6 86 bd a5 2f 34 3d fb f9 8c 3d
       -0.06885223 -0.065747194 0.04399075 0.068836175
0003a0 4f d3 df bd 45 02 d3 3d 30 e1 5a be 99 22 54 be
       -0.10928976 0.10303167 -0.21374965 -0.20716323
0003b0 08 2d 62 bd 1a 80 24 bd 1b 62 46 be 3d 08 80 be
       -0.055218726 -0.04016123 -0.19373362 -0.25006285
0003c0 f5 67 5c bd 05 ed 64 be 43 df 04 3d 0a 18 f5 3d
       -0.05381008 -0.22356041 0.03243948 0.11967476
0003d0 23 0a 38 be ff fb c5 3d 17 7e 9b bb 35 0a 36 be
       -0.17972617 0.09667205 -0.0047452557 -0.17777331
0003e0 ea 45 e3 3d ed d7 ad 3d d9 d0 09 3d 20 be e5 3d
       0.110973194 0.0848845 0.03364644 0.11217904
0003f0 38 23 fe 3c 1d f8 e5 bd f3 18 81 3d a1 08 3c 3e
       0.031022653 -0.112289645 0.06303587 0.18362667

sequential/conv2d_1/Conv2D f4 [32, 3, 3, 32]
000000 9a 51 b9 3d 6a e2 18 be 90 de 39 bd b5 e0 0a 3e
       0.090487674 -0.1493012 -0.045378268 0.13562281
000010 dc e4 39 be 92 e1 99 3d 92 26 b9 bd 50 34 49 3e
       -0.18153709 0.07513727 -0.0904056 0.19648862
000020 87 df e0 bd 83 de 68 bd 64 66 21 3d 61 ca 01 3d
       -0.109801345 -0.05685283 0.039404288 0.031687144
000030 f1 89 17 3d dd df 0d 3e 62 9f 78 3c f1 e0 bf 3d
       0.036996786 0.13854928 0.015174719 0.09369076
000040 5d 2b 8d be 53 e4 1a be 79 ab c8 3d 19 99 db bd
       -0.27572146 -0.15126161 0.09798331 -0.107225604
000050 b3 17 e2 3c 74 c4 15 be 06 2c 26 be b5 52 4f 3d
       0.027599191 -0.14625722 -0.16227731 0.050615985
000060 c8 82 a1 bd e7 30 fd bc f5 e7 ea bb cd 07 23 be
       -0.07886273 -0.030907108 -0.0071687647 -0.15920945
000070 c8 7e ab 3d 1f af 28 bd c1 63 51 bd 46 a7 c0 bb
       0.08373791 -0.041182633 -0.051120523 -0.0058793155
000080 5c 07 08 3d 5e 36 83 be 02 bd b8 bd 5d a2 51 3e
       0.033210143 -0.25627416 -0.090204254 0.20472093
000090 21 3d 58 bc bc 3e d5 3d a9 6e 67 be 2d 05 d1 3d
       -0.013198168 0.10412356 -0.22600807 0.10206065
0000a0 54 12 3f bd 4c e5 d6 bd d8 18 f4 bd 3f ac 69 3d
       -0.04664834 -0.10492954 -0.11918801 0.057049032
0000b0 a1 f5 44 3e 4f c4 bb 3c 36 17 90 3c 17 68 8a bc
       0.19234325 0.022920756 0.017589193 -0.016895337
0000c0 f1 a3 44 be ff c3 24 be 89 50 51 bd a7 5e bb 3c
       -0.19203164 -0.16090392 -0.051102195 0.022872282
0000d0 22 8c e6 bc e8 3b 0b be 42 cf fb bd cb 72 8a bd
       -0.028142992 -0.13597071 -0.12295391 -0.06760176
0000e0 79 d3 61 be 38 22 ba 3d be 37 5a bd 39 ba c9 3d
       -0.22053327 0.09088558 -0.053275816 0.09849972
0000f0 84 3a be 3c 09 13 2b 3c 02 c5 0b be 0c 2b 39 bd
       0.023221262 0.01044155 -0.13649371 -0.04520707
000100 f8 cc fc 3d 1a 8f 37 bd de a3 b0 3c 2d e9 2e 3e
       0.12343782 -0.044814207 0.021562513 0.17081137
000110 f9 ea 38 bd 41 c2 00 3e 88 1a d5 bd 52 ce 4f 3c
       -0.045145962 0.12574102 -0.10405451 0.012683468
000120 d5 30 70 bd 21 a7 6a be 4d a9 ea bc 8a c7 35 bc
       -0.05864032 -0.22915317 -0.028645182 -0.011094937
000130 36 a8 a2 3e de ad 3d 3d 06 59 05 be c2 25 22 bd
       0.3176896 0.04630839 -0.13022241 -0.03958679
000140 ee c7 67 be 06 36 83 be a7 fa 63 bd e0 35 b3 bd
       -0.22634861 -0.25627154 -0.055658963 -0.0875051
000150 d6 28 6a be 01 fa 2c 3d 03 f5 10 bd ad cf 90 bc
       -0.2286714 0.04223061 -0.03538991 -0.017677153
000160 3d 73 32 be ae 02 14 3e ef 22 ea bd 61 64 fa bc
       -0.17426772 0.14454147 -0.11432444 -0.030565443
000170 d2 a5 9d 3d 62 10 7c bd 81 ff 1a be 03 76 15 3d
       0.07697643 -0.06153906 -0.1513653 0.036489498
000180 a3 70 ca 3d d0 14 26 be 69 ed 95 bd 17 eb 05 3e
       0.09884765 -0.16218877 -0.07320673 0.13077961
000190 e5 95 9d ba 2a 66 1c 3e 9b 5d 01 be 1d a9 31 3e
       -0.0012022821 0.15273347 -0.12633364 0.17349668
0001a0 2b 5a 8a be 39 9e 05 be 63 74 fa bc 48 9a 61 3d
       -0.27021918 -0.13048638 -0.030573076 0.055078775
0001b0 e6 03 c6 bd 86 be 47 3d bb a4 33 3e 96 78 67 bd
       -0.09668712 0.04876568 0.17543308 -0.056511484
0001c0 a8 4a b7 bc 04 1e 51 bd 05 21 25 bc cf 21 11 3d
       -0.022374466 -0.051054016 -0.010078673 0.035432633
0001d0 d2 3c d2 bd 82 88 29 be 40 ec 17 be ff 8e 82 bc
       -0.10265507 -0.1655598 -0.14836216 -0.015937326
0001e0 be 53 9b bd 19 93 9c 3d 8c 5b e4 bc dd 82 4d be
       -0.07584332 0.07645244 -0.027875684 -0.20069452
0001f0 e1 e3 a7 3d 58 79 a7 3c 7e 48 12 3e 3d 6c fe bd
       0.08197761 0.020443603 0.14285466 -0.124229886
000200 6d 39 80 3d 60 60 0b be 74 40 06 3e 6d 1d 15 3e
       0.06260953 -0.13610983 0.13110524 0.14562006
000210 3f 66 94 3d 44 29 16 3d 89 ae e7 bd 01 b3 22 3e
       0.072460644 0.036660448 -0.11312587 0.15888597
000220 70 00 76 bc f5 a8 13 bd 02 b0 d2 bd 5b 20 06 3d
       -0.015014753 -0.0360498 -0.10287477 0.0327457
000230 28 f1 05 3e fb be cc 3d 6e f9 e4 3b e9 02 dc 3c
       0.13080275 0.09997364 0.006987742 0.026856856
000240 e6 34 d8 bd 14 da 18 bd f6 6e 02 bd b3 32 76 3d
       -0.105569646 -0.03731735 -0.0318441 0.060106944
000250 34 2c 51 be 98 93 4e bc b5 f4 be bd 6d a0 aa bd
       -0.20427018 -0.012608431 -0.09324018 -0.0833138
000260 cd 66 5d be 98 bd 8c bb 3b 86 1b bd 85 09 49 bd
       -0.21621247 -0.0042950623 -0.03796981 -0.049081344
000270 50 47 20 3c ef a6 dd 3c e8 f8 8e 3d e0 40 0c bc
       0.009782627 0.02705714 0.06981069 -0.008560389
000280 7a ff 12 bd 0a d0 87 be 8b 7a 7b 3d 35 7e 82 3e
       -0.035888173 -0.2652591 0.061396163 0.25486913
000290 62 90 0b 3d ff 92 be 3d 7f 2e 6d be 0e 06 54 3e
       0.03407324 0.09305381 -0.23162268 0.20705435
0002a0 57 6f a0 3d 57 c0 2c be 9e 1c 24 3c 81 ca 8f 3d
       0.078337364 -0.16870247 0.0100165885 0.070210464
0002b0 88 20 f2 3d 22 00 11 3d 8e 30 bc bd a3 45 72 bd
       0.11822611 0.035400517 -0.091889486 -0.059148442
0002c0 56 83 35 be 94 a4 f6 bd 2f ec 2d 3e 14 67 50 bd
       -0.17725882 -0.120431095 0.16984628 -0.050879553
0002d0 58 f8 94 be 7e 44 a1 bd f6 e0 28 be 7f 7b 12 be
       -0.2909572 -0.07874392 -0.16492066 -0.14304923
0002e0 1c 45 97 be 77 8a a6 3c 71 4e c5 bd ff 07 19 be
       -0.29544914 0.020329697 -0.09634102 -0.14944457
0002f0 86 ae 9d 3d 93 31 39 3b af d4 ab bd 00 95 9e 3b
       0.07699303 0.0028258308 -0.083901756 0.0048395395
000300 c6 d6 11 3e fc 97 ba bd 6e 6b ef bb df f4 8e bd
       0.14242086 -0.0911102 -0.007306508 -0.06980299
000310 8a e7 57 bc 32 99 d4 3c 56 bb 1b 3d e0 f1 e5 3d
       -0.013177762 0.025951955 0.038020454 0.112277746
000320 a0 b2 94 bd 68 9e 92 bd a1 49 0e be 53 7c 33 3e
       -0.072606325 -0.0715912 -0.13895275 0.17527895
000330 5a 6a 2f bd 5b c4 59 3d 05 dc 1b 3e f0 c8 da 3d
       -0.042826034 0.053165775 0.1522065 0.10682857
000340 44 40 c6 bd 03 cc 2a bd 06 d1 01 3d ce 36 84 3b
       -0.096802264 -0.041698467 0.03169348 0.0040348535
000350 e0 8a ac bd ae 2d 63 be 63 b8 70 bd be d4 cb bc
       -0.08424926 -0.22185394 -0.058769595 -0.024881717
000360 c7 b6 07 be 96 2e 9b 3d 2c f7 80 3c 1c 45 22 bd
       -0.13253318 0.07577245 0.01574286 -0.03961669
000370 14 9c 06 3e e0 5e 56 bd a8 ed 0e bd 26 fe 22 bc
       0.13145477 -0.052336574 -0.034894615 -0.009948289
000380 5c 70 cc 3d e8 af 6c be 18 7e a2 3a c9 b3 5d 3e
       0.09982368 -0.23113978 0.0012397198 0.21650614
000390 a9 32 93 bc d1 16 05 3e 95 1b d1 bd 9b 98 3d 3e
       -0.017968493 0.12996985 -0.10210339 0.18515246
0003a0 0c 6c a2 bd b4 1e 8d bd 09 4b 04 be 1b b1 d4 3b
       -0.079307646 -0.06890622 -0.12919249 0.006490839
0003b0 5f 6a 95 3d 9e 60 83 3d ad 2e 7b 3d b7 22 a8 3d
       0.07295679 0.06414913 0.06132381 0.08209746
0003c0 5d 23 af bd 37 95 01 be a2 0c c9 3d d9 c2 f8 3c
       -0.08551667 -0.12654577 0.09816863 0.030366348
0003d0 b2 94 07 be 03 65 9d 3c bd 23 d0 bd 66 30 81 bd
       -0.13240317 0.019213205 -0.101630665 -0.063080594
0003e0 b4 88 77 be 6c 8c b9 3d 8e 50 06 3d 60 0d ac 3c
       -0.24173242 0.090599865 0.032791667 0.021002471
0003f0 4d 96 55 3d 0c 2a f2 bd 0c 87 82 3d 60 c4 08 3e
       0.05214529 -0.11824426 0.063734144 0.13356161

sequential/conv2d_2/Conv2D f4 [32, 3, 3, 32]
000000 2e ed 89 3d 31 65 c0 bd 34 f8 00 bd 24 ad 00 3d
       0.067346916 -0.09394301 -0.031486705 0.03141512
000010 92 6c 29 be e3 39 85 3d 48 46 5c bc 0a 28 50 bc
       -0.16545323 0.06505182 -0.013444491 -0.012704859
000020 10 a1 ae 3b 87 8a 00 be 7d d5 c2 3c 25 ef b2 bd
       0.0053292587 -0.12552844 0.02378344 -0.087370194
000030 2e 62 41 be d8 26 0e be 33 bc 87 bb 4d 40 4c 3d
       -0.18885109 -0.13882005 -0.004142308 0.04986601
000040 c9 6d 91 3d d9 d0 fe 3c 13 f8 53 bd 8a 0c 86 3d
       0.07101018 0.031105446 -0.051750254 0.065453604
000050 4f 47 65 3d d3 99 67 3e b9 3f 41 be 12 2a a7 bd
       0.05597621 0.22617273 -0.18871965 -0.08162321
000060 23 3f fe 3d 44 7f bb bd 4a 06 8b bd e3 12 87 bd
       0.12414386 -0.09155133 -0.06788309 -0.06595399
000070 66 fa b1 3d 8c dd 42 3d 97 76 f6 3c 95 eb c9 3c
       0.08690338 0.047574565 0.030085845 0.024648467
000080 3b 66 df bd 10 1a cd 3d ae e1 55 bd 0e 50 e6 3d
       -0.10908171 0.10014737 -0.052217178 0.11245738
000090 ac 68 73 bc 26 31 05 3d 34 c0 1a bd 70 9b 9c bd
       -0.014856499 0.032517575 -0.037780955 -0.07646835
0000a0 2c 5c b7 3c f6 d2 27 bd 80 c6 16 3e 35 53 0c 3e
       0.022382818 -0.040972672 0.14724159 0.13703616
0000b0 78 5d 53 bd 29 16 e4 bc c7 4b 03 be c3 22 47 3e
       -0.05160281 -0.027842598 -0.12821876 0.19446854
0000c0 eb 86 d2 bd d0 f9 01 3d f6 a1 35 bd fd e8 91 3c
       -0.1027964 0.03173238 -0.04434391 0.017811293
0000d0 e2 8c 70 bb 7e a5 bd 3d ba 60 42 be 04 c8 dc bd
       -0.0036705066 0.09260081 -0.18982211 -0.107803375
0000e0 c6 a2 b1 3d 13 f7 fd 3d d6 7c 9a 3d 7f a0 25 bd
       0.08673625 0.12400641 0.07543342 -0.040436264
0000f0 74 1e 3c 3d 55 3e 94 bd b8 b1 72 3c 67 c7 d2 bd
       0.04592748 -0.072384514 0.014812879 -0.10291939
000100 34 2c 86 bd da 44 f7 3d bb 1e 99 3d 07 bd 31 bd
       -0.065514 0.12073679 0.074765645 -0.04339316
000110 11 0f be 3d aa da 84 b9 25 35 d4 bd 1a 42 9a 3d
       0.092802174 -0.0002533992 -0.10361699 0.07532139
000120 bd b4 04 bd 6c 5d cb 3c b1 53 e3 3d 62 63 d9 3d
       -0.032398928 0.02482482 0.11099947 0.10614659
000130 a9 87 5e be 06 9a 0e be 33 bf f2 bc 27 47 7e 3e
       -0.21731438 -0.13925943 -0.029632187 0.2483183
000140 6d 10 18 3d f1 0d 1e 3d d9 36 33 3e 86 b8 d6 bc
       0.03712504 0.038587514 0.17501391 -0.026211035
000150 9c fa e8 3d bf 04 5b 3e 1d 6b e0 bd 08 99 d6 3c
       0.11375925 0.21388529 -0.1095793 0.026196018
000160 d5 bc f0 3d 6e 5b 39 3e 3e f2 8a bd b5 25 a0 bd
       0.11754767 0.18101284 -0.06784485 -0.07819692
000170 60 0d 35 3d ae 92 b7 3d f0 61 87 bd 1d 7d f0 3d
       0.04420221 0.08963524 -0.06610477 0.117426135
000180 36 48 a0 bc 4d 98 da 3d d1 76 54 3d 52 08 b1 3d
       -0.019565683 0.1067358 0.051871125 0.08644165
000190 06 dd 32 be 35 3d b0 bd 5c 85 04 ba 07 ab 14 be
       -0.17467126 -0.08605424 -0.00050552725 -0.14518367
0001a0 a2 69 dd bd a9 66 30 be a7 4d b8 3d 63 04 67 bc
       -0.108111635 -0.17226662 0.08999186 -0.014100167
0001b0 8b 57 2b be 6f 2f 02 be 16 da 3d 3d 43 be 12 be
       -0.16732614 -0.12713407 0.04635056 -0.14330392
0001c0 19 64 e4 bc d6 a7 d3 3d b0 8d b2 3d 36 95 25 3d
       -0.027879762 0.103347465 0.08718431 0.0404255
0001d0 3a 30 07 3e 0b bb 17 bd 5f d9 d4 bd 8a b5 1e be
       0.1320199 -0.037043612 -0.10393023 -0.15498939
0001e0 16 0d 34 be d2 72 ed 3d d7 f0 cd 3d 4a db ac bb
       -0.17583117 0.11594166 0.10055702 -0.0052751647
0001f0 b0 ef d8 3d 59 52 49 bd e2 96 09 ba 7e e0 f9 3d
       0.10592592 -0.0491508 -0.00052486185 0.122010216
000200 ce b7 82 bc 33 ba 22 3e 09 d9 01 be 40 a0 a0 bd
       -0.015956786 0.15891342 -0.12680449 -0.07843065
000210 ff 1d 1a 3d 61 f9 f3 bd 8d f9 5b bd b2 e7 d3 bb
       0.037626263 -0.119127996 -0.053704787 -0.006466829
000220 f6 d2 83 bd d8 e5 2c be 8f b7 9a 3c 18 41 d0 bc
       -0.06436722 -0.16884553 0.018886356 -0.025421664
000230 88 6f d5 bd a0 bc 3a 3c c4 44 89 bd 42 6f 73 3d
       -0.104216635 0.011397511 -0.06702569 0.059432276
000240 45 57 12 bd 7e 70 59 3d ab 58 83 3c 2c 06 49 bb
       -0.035727758 0.053085797 0.016033491 -0.0030673845
000250 72 e3 15 3e ad d0 5e bd 5b 20 3c 3a 59 5d 4e bd
       0.14637545 -0.054398227 0.0007176452 -0.050381992
000260 d8 b0 03 bc de 92 09 3e a7 4f 5c bd 1a 7c bc bd
       -0.008037768 0.13434932 -0.0537869 -0.09203358
000270 8c c8 bd 3d 2d be f6 3c 74 0f ed ba 37 af fd 3d
       0.09266767 0.03011998 -0.001808627 0.12386935
000280 39 bb e8 bd 30 3b 19 3e 3d 5c 99 3d 6b ab 30 be
       -0.11363835 0.14963984 0.07488296 -0.17252891
000290 68 96 2c 3e 14 88 54 bc 64 6f 1e bc 8c 5b 8b bd
       0.1685425 -0.012971897 -0.009670112 -0.068045706
0002a0 f6 9a f0 3d 19 54 4b 3e e3 03 67 3d 54 71 74 bd
       0.117483065 0.198563 0.05640019 -0.05967839
0002b0 35 2f 8d bd 83 da 0c be b6 02 f7 bb 3d 1b 31 3e
       -0.0689377 -0.1375523 -0.007538165 0.17295547
0002c0 c8 df 55 3d 3f da 9e bc 57 48 d3 3d 42 69 d1 3c
       0.052215368 -0.019391177 0.10316532 0.025562886
0002d0 5f b7 c7 3d d0 af be bc fa d8 89 bd 8a cc b7 bd
       0.09751772 -0.023277193 -0.06730838 -0.089745596
0002e0 1c 51 c2 3d 43 a6 11 3e 9f c0 39 bc f5 47 b6 bc
       0.09488127 0.1422358 -0.011337428 -0.022251109
0002f0 88 25 0b 3b f2 c8 b8 3c c4 4e 9b 3d 21 27 69 bc
       0.0021232087 0.022556756 0.07583383 -0.01423052
000300 86 72 28 be 4b b7 1e 3d 5d d6 63 3d d7 29 8c 3d
       -0.16449937 0.03874902 0.055624355 0.06843918
000310 33 bd 83 be bd 3b 38 bd 51 f3 bd bd 20 7d 95 bc
       -0.25730285 -0.044978846 -0.092749245 -0.01824814
000320 da 89 76 3d 89 33 9f be f7 02 ad bc 79 e1 a6 bd
       0.06019006 -0.31094006 -0.021119578 -0.08148474
000330 59 d4 a6 bd 1c 1c 2f be 35 e6 8d 3c f7 23 ce 3c
       -0.08145971 -0.17100567 0.017321685 0.025163634
000340 a7 d6 86 3c 24 d4 19 3e 37 b9 89 3d 23 6f 12 3d
       0.016459776 0.15022331 0.0672478 0.03575052
000350 d8 0e 21 3e 61 f7 ba bd 53 b2 5a be 90 c7 84 bd
       0.15728319 -0.09129215 -0.21357088 -0.06483376
000360 7b de 25 3d 73 b3 69 3c 22 4e 8a bd fb de 92 bd
       0.040495377 0.014263975 -0.06753184 -0.071714364
000370 99 fb b5 3c 5c ea 2e 3d 3d 9b 70 3d 35 fa 9f bd
       0.022214698 0.04270397 0.058741797 -0.07811395
000380 a6 35 e4 bd 69 9a 13 3e 23 ae 9e bc a8 e8 74 3d
       -0.11143045 0.14414372 -0.019370144 0.05979219
000390 9e 46 6e be a4 65 48 be 71 52 e2 bb 70 c2 5e b9
       -0.23269126 -0.19570023 -0.0069068004 -0.00021244003
0003a0 a9 d9 02 bd f1 9b 77 be a4 26 68 3c 71 9a be 3d
       -0.03194586 -0.2418058 0.014169369 0.09306801
0003b0 c6 dd 89 bd ce fc be bd 7e a9 a2 bd e2 ef 4d bd
       -0.06731753 -0.093255624 -0.07942484 -0.0502776
0003c0 0c 1d 49 3d 36 9f 3b 3d 3a 2e 83 bb 73 e2 38 3e
       0.049099967 0.045806132 -0.0040033134 0.18055134
0003d0 28 5c c6 3d cb 0a 8e 3d c3 a5 3a bd 91 bb 18 bd
       0.09685546 0.06935652 -0.04556824 -0.037288252
0003e0 04 a4 fe ba eb 03 90 3d f1 7a ea bb f9 de ab bd
       -0.0019427543 0.07031997 -0.007155769 -0.08392138
0003f0 b9 f7 9b 3d ae c7 55 3c 65 e8 2c 3e 56 87 7b 3d
       0.07615609 0.013048096 0.16885526 0.061408363

sequential/dense/BiasAdd/ReadVariableOp f4 [128]
000000 4f 12 1d bc 63 47 17 3d 88 69 46 bd ac fb ec 3c
       -0.009586885 0.036933314 -0.048440486 0.0289286
000010 91 3d 2a bd 7e 25 14 bc 23 bf 9d bd c7 c4 24 3e
       -0.04156262 -0.009042142 -0.07702472 0.1609069
000020 48 85 c5 bd ed cc e3 3d 79 58 48 bd d0 41 bf bc
       -0.09644562 0.11123071 -0.0489125 -0.023346812
000030 8e ba 22 bd 34 7b a3 bd 63 5d 30 3c 0e f0 48 b9
       -0.039728694 -0.079824835 0.010764453 -0.00019162914
000040 84 dc 13 bd be 52 19 bd 83 68 32 3e 39 69 be bc
       -0.036098972 -0.037432425 0.1742268 -0.023243533
000050 08 b3 ea 3d e0 e7 3e bd 46 3d c7 3d db 77 f3 bc
       0.11459929 -0.046607852 0.09728484 -0.029720237
000060 51 ea c3 bc 27 f2 da bc 9c e5 13 bd 1d b0 6e bd
       -0.023915442 -0.026726795 -0.036107644 -0.058273423
000070 ed 06 04 bd bd 33 02 3e f4 38 55 3c a2 34 4a 3d
       -0.032233167 0.12715049 0.013014067 0.0493666
000080 86 b9 0b bc 82 4b e3 3d 2c b6 0e 3e 6e c5 d7 ba
       -0.008528119 0.11098386 0.1393668 -0.0016462037
000090 15 58 a6 3c 19 b3 97 3d be b6 20 3d d5 78 4e bd
       0.020305673 0.07407207 0.039236777 -0.050408203
0000a0 3f 56 aa bc e8 11 5f bd 54 fd 22 bd c5 dd b0 bd
       -0.020793078 -0.054460436 -0.039792374 -0.08636049
0000b0 f0 8c df bd db fb 00 3e 46 85 61 bd 52 6e 9e 3d
       -0.109155536 0.12596075 -0.05505874 0.07735886
0000c0 f9 5a 8d bd 88 d2 62 3d 8a aa dd bc 73 df af ba
       -0.06902117 0.05537656 -0.027058858 -0.0013418033
0000d0 80 68 bb 3c 45 50 85 bd eb 7d c4 bc a2 08 b2 bc
       0.022876978 -0.06509451 -0.023985824 -0.021732632
0000e0 b1 bc a4 bc 33 bc fc bc fb 22 c5 3d 54 f7 37 3d
       -0.020109506 -0.03085146 0.096258126 0.044913605
0000f0 98 8f 4b bd 6f 05 d4 bd dd 09 d4 3d 46 48 68 3d
       -0.04969749 -0.10352599 0.10353444 0.05670955
000100 47 aa bb 3d 52 26 ac 3d 33 6f 82 3d da d6 f1 bc
       0.09163337 0.084057465 0.06368866 -0.029521395
000110 ba c7 63 bd da ec 8e bc 2d 3f d0 3d c2 2f 09 3e
       -0.055610396 -0.017446924 0.101683 0.13397124
000120 dd 33 e9 3d 89 04 a1 3d 04 ee 53 bd d7 22 60 bd
       0.11386845 0.07862193 -0.05174066 -0.054720726
000130 b8 19 0d 3c 4a 76 42 3d a2 b6 c8 3d 95 e1 1a bd
       0.008612089 0.04747609 0.098004594 -0.037812788
000140 b7 76 17 bd 4a 39 ed 3d ea d9 84 3c 80 2a 13 3e
       -0.03697845 0.11583193 0.01621719 0.14371681
000150 92 ec 80 bd c2 0e a3 3d cb b7 e9 3d 08 06 24 3a
       -0.06295122 0.07961799 0.11412009 0.0006257002
000160 16 40 09 bc ba 86 89 3d 74 a4 8c 3d 35 cb c0 3c
       -0.008377096 0.0671515 0.068673044 0.023534397
000170 08 e0 60 3c 48 de d6 3d 1a d4 96 3c 6b c7 d9 bd
       0.013725288 0.104916155 0.018411685 -0.10633739
000180 1b 6a 40 bd e8 24 d2 3d 88 e8 28 bd fb 29 3c be
       -0.04697619 0.102609456 -0.041237384 -0.1837539
000190 d6 f3 ec 3c 9e a3 db 3d a6 ab 07 bd 0f 17 b6 3d
       0.028924864 0.10724567 -0.03312268 0.08891117
0001a0 5c 4b b7 bc 08 d1 03 3e 84 a3 18 bd 1d 97 86 bc
       -0.022374801 0.12872708 -0.037265316 -0.016429478
0001b0 79 68 ae 3d ae c2 02 be db 65 b3 3d c3 e5 09 3d
       0.0851602 -0.12769577 0.08759662 0.033666383
0001c0 55 7f 45 3e a1 49 cc 3d f6 35 f7 bd da 88 cf 3c
       0.19286855 0.09974981 -0.12070839 0.02533381
0001d0 2c 06 0e 3e d5 c2 1a be ed 21 63 3b 86 5c b1 3d
       0.13869542 -0.15113385 0.0034657673 0.086602256
0001e0 31 ab 04 3d 4c f8 fa 3d f6 e7 85 3d 1a 23 b6 3b
       0.032389823 0.1225439 0.06538384 0.0055583837
0001f0 46 98 0b 3e c9 9e e4 3d a1 4e 93 bd 5b c4 02 bd
       0.13632306 0.11163098 -0.07192732 -0.03192554

sequential/dense_1/BiasAdd/ReadVariableOp f4 [3]
000000 be 32 c8 3b 75 de 31 3d c2 f2 31 bd
       0.0061095646 0.043425042 -0.043444403

sequential/dense/MatMul f4 [128, 128]
000000 5c 1e 7d 3d 56 ac d1 bd 84 9b 30 be e6 d8 14 3c
       0.06179653 -0.102379486 -0.17246825 0.009084916
000010 7f 3b a6 bc 6a 3a ff b9 dd 47 b2 3c b4 17 6f 3d
       -0.020292042 -0.00048680912 0.021762783 0.058372214
000020 47 41 ea bd 48 94 7b 3c fd cb 22 3e 11 31 99 bd
       -0.11438232 0.015355177 0.15898128 -0.07480062
000030 46 72 90 bd 7a 2c 7e be 56 82 7f bd 02 14 ac 3d
       -0.07053046 -0.24821654 -0.062380157 0.08402254
000040 d3 a4 64 3d cd 44 50 3a 4b 05 a4 3c 9a ca ce 3d
       0.05582125 0.00079448224 0.020022055 0.10097237
000050 d0 e7 e9 3d 3a fe e3 bd eb 60 4e 3d ea 31 a0 3d
       0.11421168 -0.11132474 0.050385397 0.0782202
000060 33 16 01 be 7c a2 21 bd 4e 42 2a be 1a f6 29 3e
       -0.12606125 -0.039461598 -0.16626856 0.16597787
000070 8d 9b b3 3a a2 ac 9e 3e 5b 85 7d bd 50 3f 07 3e
       0.0013702974 0.30991083 -0.061894756 0.13207746
000080 08 d7 80 3d 1d 21 f1 bd 17 99 88 3d cd dc 4c 3c
       0.06291014 -0.11773894 0.066698246 0.012503815
000090 1a 70 89 3c 2a 90 c5 3c 37 30 fb bc c2 0a 18 bc
       0.016777087 0.024116594 -0.030662639 -0.009279909
0000a0 73 d5 41 be a5 68 b9 bd 87 54 37 3e fb 16 aa bd
       -0.1892908 -0.090531625 0.17903338 -0.083051644
0000b0 06 5d 55 3d fd 42 95 bd a3 88 8d bc d0 53 84 bc
       0.052090667 -0.072881676 -0.017277068 -0.016153246
0000c0 fb 67 b5 3b 4f e5 58 bd 2b e4 47 3e 8f 64 81 bd
       0.005536077 -0.05295306 0.19520633 -0.06318008
0000d0 15 98 39 3e 64 d8 b8 bd c3 97 7b bd 6c ee 3a 3e
       0.18124421 -0.09025648 -0.061424028 0.18255013
0000e0 36 18 f7 bc bb b8 36 be be 41 09 be 95 1e 78 bd
       -0.030162912 -0.17843907 -0.13403985 -0.06057604
0000f0 ac e4 36 3d 40 d1 1a 3e c7 f6 3e 3c 41 1b ae 3a
       0.044651672 0.15118885 0.011655516 0.0013283269
000100 c1 7b 81 bd 10 26 de 3d 66 9d 8b bc 39 7d 14 be
       -0.06322432 0.108471036 -0.017042827 -0.14500894
000110 c4 ed 2d 3e 13 8f 60 3d e6 34 26 3e 43 19 23 bd
       0.16985232 0.054823946 0.16231117 -0.039819013
000120 0f 1d 1d be ad 06 80 bd 74 e5 07 3e 78 43 96 3d
       -0.15343116 -0.06251273 0.13271123 0.073370874
000130 08 32 9c 3d 99 78 8d bd a7 aa 08 be 88 5f 05 3e
       0.0762673 -0.06907768 -0.13346349 0.13024724
000140 84 7a 7a bd e8 2e 8f 3c 4b 3c e0 3c c6 51 6a 3d
       -0.061151996 0.017478421 0.0273725 0.05720689
000150 88 bb b5 bd ea ba 0a be 52 fc 06 be 8a 0d ec 3d
       -0.08873659 -0.13547865 -0.1318219 0.1152602
000160 fc 8b a1 3d bd 06 62 be e6 73 c7 bd 32 3d f5 bc
       0.07888028 -0.22072883 -0.09738903 -0.029936407
000170 3c 30 25 3e 0f b3 db 3d c7 9c 04 3e fd 4e 4c 3b
       0.16131681 0.10727512 0.12950431 0.003117501
000180 ed 99 8b bc e9 f0 89 bd 2c c7 c1 bd 78 7e 53 3d
       -0.017041171 -0.06735403 -0.09461817 0.051634282
000190 fb 66 13 3e 79 bc 5f 3d bc 19 db 3d a7 27 b9 bd
       0.14394753 0.0546231 0.10698268 -0.09040766
0001a0 c9 97 fa 3c e7 d2 dd 3d 9b 09 f7 3d 76 f4 9b bc
       0.030589955 0.10831242 0.12062379 -0.019037466
0001b0 21 fb 3e be a4 4e 40 bd 7d 84 bc 3d 07 bd 56 3e
       -0.18650486 -0.046949998 0.09204958 0.20970546
0001c0 80 e0 a9 bc bb b3 11 3e 13 78 23 bd fa 1e 49 3e
       -0.020736933 0.14228718 -0.039909434 0.19640723
0001d0 93 1c 8e bd 84 7c cb ba 34 7d 82 3d 13 6d 0a 3e
       -0.06939044 -0.001552478 0.06371537 0.13518171
0001e0 9d 42 9e bc 7f 93 88 be 17 76 88 bd a7 88 2d be
       -0.019318873 -0.2667503 -0.06663149 -0.1694666
0001f0 38 3c b5 3d 9d d9 fb b9 33 01 b3 bd ea d0 ed bd
       0.088493764 -0.00048036585 -0.08740463 -0.11612113
000200 22 30 50 3d 94 93 3d 3d 35 a4 29 be 68 4c ff 3d
       0.050827153 0.04628332 -0.16566546 0.12465745
000210 c6 39 97 3d f4 36 5a bb a3 32 b5 bd ce ad 77 bc
       0.07384066 -0.0033296915 -0.08847549 -0.015117122
000220 b5 b8 1a be d7 65 2a 3d d5 df 0e 3e 08 35 84 be
       -0.15109523 0.04160103 0.13952573 -0.2582171
000230 bd 56 c8 bd 03 dd 46 be ad 0f e7 3d 0e 01 e5 3d
       -0.09782169 -0.19420247 0.11282287 0.11181842
000240 8f 26 e2 3c 4e 75 66 bd 9d 95 be 3d b9 12 23 3e
       0.027606277 -0.056264214 0.0930588 0.15925111
000250 c7 db 9d bd 87 30 70 3d 4e f9 97 3c f5 c4 42 3e
       -0.07707935 0.05864003 0.018551495 0.19020446
000260 c8 b2 c0 bc 7c 3f 72 be 5b 00 92 bd 24 b4 1e 3d
       -0.02352275 -0.2365703 -0.07128974 0.038746014
000270 62 3d f3 ba 8d f3 eb 3d 93 fd 8e 3c 08 14 02 be
       -0.0018557722 0.11521063 0.017454898 -0.12702954
000280 0a 7e 18 be 6a c8 03 bd a4 23 ec bd 13 ab 15 3d
       -0.1489183 -0.03217355 -0.115302354 0.036540102
000290 72 9f 6c bc 86 de b1 3d b1 13 10 3e e5 b7 2e 3d
       -0.014442312 0.08685021 0.14070012 0.042655844
0002a0 e3 b7 5f 3d 1d 31 f6 bd f8 94 bf bd 23 5c 60 be
       0.054618727 -0.12021086 -0.093545854 -0.21910147
0002b0 f4 51 32 3c 44 9d 83 be c2 4b 0f be b8 1c 13 3e
       0.010883797 -0.25705922 -0.13993743 0.14366424
0002c0 bf 0a 12 bb 5d ab 11 bd bd 7d 68 bd 42 c1 50 3d
       -0.0022284237 -0.035563815 -0.05676054 0.050965555
0002d0 5d 7e c5 3d 4b c3 39 3d a0 f5 a0 bc 3b 15 8b bd
       0.096432425 0.04535226 -0.019648373 -0.06791159
0002e0 1c 9c 44 3e 1a 00 55 be 3e 57 ea 3d eb bc 74 3c
       0.19200176 -0.2080082 0.114424214 0.01493762
0002f0 d0 21 5c 3d 7e 69 49 3e 1a 9b 05 be fd 85 b5 3d
       0.053743184 0.19669148 -0.13047448 0.08863447
000300 bb bd 18 3e 0a 8d 1b be f4 a4 25 be 35 4d 24 be
       0.14916126 -0.15190521 -0.16176206 -0.16045077
000310 9e d6 1c bd 93 ec 37 bd 36 a0 5c 3d e2 f8 f0 3d
       -0.038290612 -0.04490335 0.053863727 0.11766221
000320 6b e0 b4 bd 00 4b 59 3c ee b9 38 bd 5d 6b bc 3d
       -0.08831867 0.01326251 -0.04509919 0.092001654
000330 cc 38 e7 bd e3 a3 24 be c6 97 a2 bd cb 16 38 3e
       -0.1129013 -0.16078143 -0.07939105 0.17977445
000340 25 b3 84 be f3 69 0e be 5e c8 76 bd 1f 53 37 3e
       -0.25917926 -0.13907604 -0.06024968 0.17902802
000350 cc 84 05 be 94 97 30 be 3c 90 15 be f0 d6 12 3d
       -0.13038939 -0.17245322 -0.14605802 0.03584951
000360 09 2b ad bd 7f f7 79 be 32 85 08 be 38 2a a9 3d
       -0.08455474 -0.24410819 -0.1333206 0.08260006
000370 5a 95 d4 3d 71 8b 28 3e 56 a5 5e 3e 79 42 c4 3d
       0.10380049 0.16459443 0.21742758 0.09582991
000380 11 f0 b5 bc 8a c7 d3 bd 16 1d c2 3c ce c6 66 be
       -0.0222092 -0.103407934 0.02369551 -0.22536775
000390 cd 10 89 bd 7d e2 2d 3e 52 12 a1 bc 13 57 8c 3d
       -0.066926576 0.1698093 -0.019662056 0.068525456
0003a0 76 a4 0d be 05 a5 19 3e 9a a3 69 3d 5e a2 d8 3d
       -0.13832268 0.15004356 0.05704079 0.10577844
0003b0 90 f9 3f be de 8c 96 bc fa e4 f2 3c 46 61 4b 3e
       -0.18747544 -0.018377718 0.0296502 0.19861326
0003c0 5b 89 7d be 7c d8 c9 bc 86 e0 95 bd 32 77 40 bc
       -0.24759428 -0.02463936 -0.07318215 -0.011747168
0003d0 38 c4 ca bd 0e f4 c5 bd 3b e2 49 bd 68 f8 0e 3e
       -0.09900707 -0.0966569 -0.049288016 0.13961947
0003e0 f3 2b f1 3d 17 64 50 be 20 ea 2c 3e a5 cd 14 be
       0.11775961 -0.20350681 0.16886187 -0.14531572
0003f0 52 62 25 3e cc 7d 81 3e 9a bc a9 bb 40 3a 13 3d
       0.16150787 0.25291288 -0.0051799538 0.035944223

sequential/dense_1/MatMul f4 [3, 128]
000000 b8 e5 ab bc 4b 20 96 be 32 6e 72 3e 93 10 b9 3d
       -0.020983562 -0.29321513 0.23674849 0.090363644
000010 9a b1 1d 3d 86 b9 30 3e 01 45 b8 3d 57 53 31 3e
       0.038499452 0.17258272 0.089975365 0.17316948
000020 0b d4 6f be 45 15 a0 be ca 27 18 3e 2d 0a bd bb
       -0.23420732 -0.31266227 0.14858928 -0.0057690353
000030 d2 61 c3 bd ad 48 15 3e 87 91 b8 3d 97 16 4b be
       -0.09540142 0.14578505 0.09012132 -0.19832836
000040 bd c0 2a 3e 0c 29 f1 3d 7f ae 07 bd 0f 9b 7b bd
       0.16675086 0.11775407 -0.033125397 -0.061427172
000050 ed 50 86 be ab 64 78 3c 60 57 03 be f1 eb 45 be
       -0.26233616 0.01516072 -0.128263 -0.19328286
000060 da 1d 33 bc 01 04 99 3e aa f4 3b bd 39 d0 fd 3d
       -0.01093241 0.29885867 -0.045887627 0.12393231
000070 95 a3 69 be a6 89 84 be 65 5f ed 3c 8b 16 aa bd
       -0.22816308 -0.25886267 0.028976152 -0.08305081
000080 5b ed 28 be 8b 05 a4 bc f1 b7 f3 3c e4 97 2d be
       -0.16496794 -0.020022174 0.029750796 -0.16952473
000090 ee 42 2b 3e e4 66 07 be 95 39 4a 3d ef 7f 06 3e
       0.1672475 -0.13222843 0.04937132 0.1313474
0000a0 5d 8d 1a 3e fb ce 00 3e 93 7b 50 bd 9d 62 48 be
       0.15092988 0.12578957 -0.0508991 -0.19568868
0000b0 89 ed ec 3c 87 1c 69 be 2a 47 c3 3e 68 98 71 be
       0.02892186 -0.22764789 0.3814023 -0.23593295
0000c0 ae ae b8 be f4 3d 7e 3e 8a d0 01 3e 02 0d 04 bd
       -0.3607077 0.2482832 0.12677208 -0.032238968
0000d0 5c 84 73 3e 4c 4d 18 3e 6d a0 73 3e 96 78 10 bd
       0.2378096 0.14873236 0.23791666 -0.03527125
0000e0 d3 08 31 bd 18 5c 65 3e 94 47 18 bd f6 b6 93 3e
       -0.043221306 0.22398412 -0.037177637 0.28850526
0000f0 1e ab f5 3c c9 51 a3 3e 8b 4c 95 be 69 a6 6f be
       0.029988822 0.31898335 -0.2915996 -0.23403324
000100 f5 c5 b0 3d 1c 26 96 be 54 66 bb bd 8f 74 a3 3e
       0.08631507 -0.2932595 -0.09150377 0.31924865
000110 0b 1b 24 be fa 72 00 bd f6 ff a4 3d e4 fc 83 be
       -0.16025941 -0.03135965 0.08056633 -0.25778878
000120 ea d6 6b bd 40 c6 92 be 43 d1 59 be 75 e9 1b 3e
       -0.057578005 -0.28666878 -0.21271233 0.15225776
000130 fb 52 ce bd 21 e5 87 3c c2 64 84 3e 30 0f a6 be
       -0.10074421 0.01658875 0.25858122 -0.32433462
000140 6f 19 b5 3d 95 84 04 be 0a d3 1b 3e 55 b7 af 3d
       0.08842742 -0.12941201 0.15217224 0.0857989
000150 89 4f 05 3e cd 53 ca 3d 43 49 42 bd 81 0b f5 3c
       0.13018622 0.09879265 -0.04743315 0.029912712
000160 aa 9a 55 3e 39 72 6d 3e 11 34 07 be be a5 5a 3e
       0.20859781 0.23188104 -0.13203456 0.21352288
000170 03 4e 05 3e 1b 78 17 3e 82 3a 90 bd 51 e2 fa bd
       0.1301804 0.1479191 -0.070424095 -0.12250198
000180 22 b6 4f be b9 74 87 be bd 7b c9 bd 29 6d 4f be
       -0.20284322 -0.2645624 -0.09838054 -0.20256485
000190 95 1b 62 bc b7 ff 64 3e 17 0d 0f 3e 16 16 24 3e
       -0.013800521 0.22363172 0.13969837 0.1602405
0001a0 e4 dd 54 3e de 04 28 3e cc d8 d2 3c e0 bc ae bc
       0.2078777 0.16408107 0.025738142 -0.021330297
0001b0 7e 47 d9 bd 3f 9d 8c 3e 49 4e 87 bd 98 ee ba 3c
       -0.10609339 0.2746372 -0.066067286 0.022818848
0001c0 fb 4f e5 be c3 8a af be 21 df 37 be b1 f4 76 bd
       -0.44787583 -0.34285554 -0.1795621 -0.06029195
0001d0 0d 38 90 be da 02 94 3d 57 1c 80 be 04 37 8d 3e
       -0.28167763 0.072271064 -0.25021622 0.27581036
0001e0 3d 2b 51 3d cc 82 b7 be 6e 39 0c be a6 e4 61 3e
       0.051066626 -0.35841978 -0.13693783 0.22059879
0001f0 5f 08 fa 3c b3 d1 81 bd 9f b9 2b 3d 6c c8 52 bd
       0.03052157 -0.06338825 0.04192507 -0.05146067
000200 31 77 32 bd 1a c9 b0 bd e7 f2 26 3e 40 f3 5c be
       -0.0435707 -0.08632107 0.16303597 -0.21577168
000210 1e 11 00 3e 17 d5 0f be 1d ed 24 be 09 52 2e 3e
       0.1250653 -0.14046131 -0.16106077 0.17023481
000220 9a 7f 9b bd 30 92 9a 3e 74 67 07 3b 92 bb b7 bd
       -0.075926974 0.30189657 0.0020661028 -0.08971323
000230 ed 90 1d 3d 19 7f 13 bd f1 df 8e bd 92 df 39 bd
       0.03846829 -0.03600988 -0.06976307 -0.04537923
000240 91 aa 17 be 74 15 95 be 24 40 93 3e 23 ea ae 3d
       -0.1481116 -0.2911793 0.28759873 0.08540752
000250 9d 04 7c 3e e4 07 05 be 12 79 ed 3d cb c5 0d be
       0.24611135 -0.12991291 0.11595358 -0.13844983
000260 ed 95 f9 3d 32 d7 7a bd 10 7b bc 3d 11 b1 a5 be
       0.12186799 -0.061240382 0.0920316 -0.32361653
000270 6f 83 6e be 0e ea b8 3e 7e a9 10 3e 77 13 6c 3e
       -0.23292325 0.3611607 0.14127156 0.230543
000280 87 24 cc bd 90 4d 36 3e c6 e7 1c 3e 1e 46 01 be
       -0.099679045 0.17803025 0.1532279 -0.12624404
000290 23 6d d5 bc 3a db af 3e 37 5f 84 3e 89 27 7c 3c
       -0.026053017 0.34346944 0.25853893 0.015390285
0002a0 b5 57 01 be 52 ab 23 3e 6c cd 01 3d c3 59 1a bd
       -0.12631114 0.15983322 0.031690046 -0.03768326
0002b0 84 ee a7 bd ef e1 4d bd 3d a2 89 be e8 f0 f2 3c
       -0.0819979 -0.050264295 -0.2688159 0.029655889
0002c0 d2 aa 58 be 6d 43 35 3d f7 39 b9 3d be 93 8d 3d
       -0.21158913 0.044253755 0.09044259 0.06912945
0002d0 44 a1 6d bc 3b 5f e4 bc d0 86 89 bd c6 d8 4d be
       -0.014503781 -0.02787744 -0.067151666 -0.20102224
0002e0 4c 81 ea ba b1 8e 4b be 08 eb a5 3e 4a 37 6d bd
       -0.0017891317 -0.19878651 0.32405877 -0.057914056
0002f0 82 1f 1a be 49 1e dd bd c5 ae 33 3e b1 cd 00 3d
       -0.15051082 -0.10796792 0.17547138 0.031446163
000300 24 a6 76 3c f6 00 11 3e a4 56 82 3e 10 e9 86 bd
       0.015054259 0.14160523 0.25456727 -0.06587422
000310 bd 8f 38 be 73 b4 ca 3d 70 59 f7 bc 7d e8 82 3e
       -0.18023582 0.09897699 -0.030194014 0.25568
000320 51 9e a0 3d e7 b4 e6 3d f9 c9 b8 3c bb 46 a5 bd
       0.078426965 0.11264973 0.022557246 -0.080701314
000330 40 44 b2 3d 56 af 7a 3e 5f 46 5e 3e 51 b4 ef 3d
       0.08704424 0.24480948 0.21706532 0.117043145
000340 81 03 00 3e 03 67 17 3e 54 f9 f8 bd f4 b7 d3 3d
       0.12501337 0.1478539 -0.121569306 0.10337821
000350 78 03 40 bd cc dc 14 3d de 22 73 3e 62 35 e2 3d
       -0.046878308 0.03634338 0.2374377 0.11045338
000360 e0 17 55 3d a4 7a 4b bb b0 15 d4 bc 0e 6e 22 3d
       0.052024722 -0.0031048441 -0.025889248 0.039655738
000370 dc be 12 bd 50 bf 0f be e1 8b 3b 3d 44 08 78 bc
       -0.03582655 -0.14037824 0.045787696 -0.015138689
000380 2c 8a f8 3d 2d 4a d1 3d bf b8 f8 3d bc d1 26 3e
       0.12135729 0.10219226 0.121446125 0.16290945
000390 18 1c c2 3d ca 0c 55 3e ac b7 9e bd b6 e4 28 3e
       0.09478015 0.2080566 -0.077498764 0.16493496
0003a0 d6 d2 1e bd 16 f0 9a 3d 03 3f e3 3d 68 a0 4e 3c
       -0.038775288 0.07565324 0.11096003 0.012611486
0003b0 bc 57 1c bd 40 6c 05 be fb 95 99 3e dc 9e 7b 3e
       -0.038169608 -0.13029575 0.2999724 0.24572319
0003c0 ef f4 7a 3e 78 29 39 3e 09 bc 30 3e 54 12 bb 3d
       0.24507497 0.18082225 0.1725923 0.09134355
0003d0 8c ba fc bc 4f 24 80 be 84 fa 81 be 48 ff 0d 3e
       -0.030850671 -0.250277 -0.2538644 0.13866913
0003e0 73 65 d1 bd f4 69 90 3e 03 f3 31 be eb 8e d4 bd
       -0.10224428 0.28205836 -0.17377858 -0.10378822
0003f0 55 e4 37 3e ad 30 56 3e 3d cd 80 3d 74 c6 c8 3c
       0.17958196 0.20917006 0.06289146 0.024508692
